data.pth (torch, 5783 bytes, 6 tensors)

l1.weight f4 [8, 72]
0.13904431 0.09633484 0.3684518 -0.11826486 -0.06702282 0.5634072 0.045734253 0.3638286
0.322013 0.4012306 -0.5498314 0.05081862 0.20543505 -0.20820267 0.7962901 0.051141556
-0.12666065 0.6221317 0.30564344 0.18398547 -0.13731033 0.9992011 0.5944284 0.814791
-0.27754435 -0.5536532 0.68973887 -0.5784512 0.629586 -0.2816523 -0.69863224 -0.5380838
0.8582543 0.31053773 0.14161803 -0.056752887 0.04845284 -0.079969235 0.7753749 0.011160555
0.82219905 0.9595387 0.8036521 0.5455525 0.5167175 0.4408712 0.51886314 0.017447276
-0.04598659 -0.046916835 0.5554656 0.518087 -0.37004966 0.68287563 0.5339691 -0.010729808
0.36752176 0.44916922 -0.0015589104 0.34232584 0.23177436 0.5255479 -0.47976297 0.16692711
0.37693173 0.15012246 0.31494832 -0.4178042 -0.16164492 0.49431768 0.5159203 -0.1570166
0.021247257 -0.094303355 0.7420525 0.59564275 -0.16646735 -0.17409734 0.33908746 -0.07761827
-0.2998033 -0.4476855 -0.37485722 0.48257935 0.46327302 0.6349497 -0.43858564 0.41411558
-0.15839869 0.66994756 0.3509593 -0.13984887 -0.15538657 0.07367228 -0.13537584 -0.20854609
-0.33543304 -0.43332487 -0.15981366 -0.50202364 0.6372761 -0.2963673 -0.5020486 -0.5020322
0.12862618 0.22063583 0.350085 0.62694144 -0.10536173 -0.16652577 -0.21567354 -0.3764376
-0.50198394 -0.50206393 -0.50211525 -0.18443374 -0.3175707 0.719381 0.7828243 0.4968537
0.57556224 0.5034424 0.7699915 0.6011153 -0.42453104 0.117573805 0.81469184 0.51918113
1.0263892 0.619275 -0.04857279 0.44920063 -0.29047322 0.72817045 -0.54319555 -0.16412258
0.40020955 0.059799355 -0.30317482 -0.4262533 0.58650947 0.79408234 0.74197185 0.101347424
0.07916499 0.49931997 0.2175787 0.24642247 0.252171 -0.25964335 0.32238415 -0.09421992
-0.018968046 0.101237476 -0.41978872 0.2162577 0.30440518 0.28383845 -0.62240064 0.26974377
0.4889269 0.21161903 0.6204308 0.017172758 0.24923998 -0.19151938 -0.35736245 -0.6680058
0.5947852 -0.3040559 -0.13264322 0.58753204 -0.46610323 0.43058774 0.6446974 0.67185795
0.20175762 0.4228419 -0.21721831 0.39647374 0.16723669 0.27963373 -0.4779071 0.21663807
-0.2260004 -0.37486365 -0.21428944 -0.1513875 -0.16526619 0.601065 0.5014126 0.20224443
0.23902112 0.29869995 0.62155604 0.5835873 -0.28585678 0.05452362 0.48581335 0.24632208
-0.7235964 -0.33682567 0.24263501 0.32717997 0.17422841 0.7979082 0.50607985 0.12312636
-0.065254934 0.47673947 -0.011640137 0.3955152 0.19811213 0.61025673 0.58997303 -0.00919386
0.34047592 0.032839753 0.21293089 0.1600475 -0.26728013 0.47519436 0.1959167 0.45866764
0.38010025 0.4852902 1.0449647 0.37870106 0.22087291 0.12220147 0.5213683 0.1866211
-0.09060903 -0.19578779 0.35162526 0.29987785 -0.16685806 0.6997763 0.47263387 0.7128355
-0.2050689 1.055929 0.46147245 -0.34837663 0.5841573 -0.07956457 -0.34711087 -0.451253
0.3703045 -0.3077547 0.6623085 0.1970082 -0.1004174 -0.36648652 0.68583447 0.37232387
00000000: a261 0e3e 334b c53d b7a5 bc3e d934 f2bd
00000010: 4343 89bd 743b 103f d753 3b3d be47 ba3e
00000020: e3de a43e 196e cd3e c0c1 0cbf 2f27 503d
00000030: 915d 523e 1533 55be abd9 4b3f cf79 513d
00000040: 54b3 01be 0644 1f3f 4c7d 9c3e b066 3c3e
00000050: 149b 0cbe a5cb 7f3f 762c 183f 2596 503f
00000060: 4b1a 8ebe 37bc 0dbf ba92 303f 6115 14bf
00000070: 8c2c 213f bb34 90be 90d9 32bf dcbf 09bf
00000080: 8eb6 5b3f cdfe 9e3e 5104 113e b775 68bd
00000090: 7c76 463d e9c6 a3bd f87e 463f c3da 363c
000000a0: a37b 523f 54a4 753f 25bc 4d3f 54a9 0b3f
000000b0: 9947 043f dfb9 e13e 37d4 043f 97ed 8e3c
000000c0: 6f5c 3cbd de2b 40bd fe32 0e3f 5aa1 043f
000000d0: 2677 bdbe f0d0 2e3f 33b2 083f 14cc 2fbc
000000e0: d02b bc3e 82f9 e53e 5a54 ccba 5545 af3e
000000f0: 4256 6d3e 4f8a 063f 7ea3 f5be f1ee 2a3e
00000100: 32fd c03e b4b9 193e e840 a13e 6fea d5be
00000110: 3f86 25be 3517 fd3e 5a13 043f f6c8 20be
00000120: ba0e ae3c 1e22 c1bd 27f7 3d3f 0b7c 183f
00000130: 6b76 2abe 9346 32be df9c ad3e 54f6 9ebd
00000140: d17f 99be 0937 e5be 49ed bfbe a414 f73e
00000150: 1f32 ed3e 108c 223f 4c8e e0be f506 d43e
00000160: 4433 22be af81 2b3f f0b0 b33e 8b34 0fbe
00000170: a81d 1fbe 7ee1 963d f79f 0abe 1b8d 55be
00000180: e1bd abbe c2dc ddbe 31a6 23be 9f84 00bf
00000190: 8724 233f 74bd 97be 4286 00bf 2f85 00bf
000001a0: 95b6 033e 5cee 613e 573e b33e 3c7f 203f
000001b0: e4c7 d7bd bb85 2abe 86d9 5cbe 6ebc c0be
000001c0: 0582 00bf 4387 00bf a08a 00bf 33dc 3cbe
000001d0: a098 a2be 5a29 383f 2c67 483f 9c63 fe3e
000001e0: 0c58 133f 9ae1 003f 2a1e 453f b1e2 193f
000001f0: 225c d9be 89ca f03d a58f 503f 0ee9 043f
00000200: b960 833f ce88 1e3f 43f4 46bd a0fd e53e
00000210: e8b8 94be 6169 3a3f dd0e 0bbf c00f 28be
00000220: 44e8 cc3e 2bf0 743d bb39 9bbe df3d dabe
00000230: 7c25 163f fb48 4b3f def1 3d3f 3d8f cf3d
00000240: 4121 a23d dea6 ff3e f3cc 5e3e 2c56 7c3e
00000250: 8f1c 813e f9ef 84be 890f a53e 60f6 c0bd
00000260: e062 9bbc 9855 cf3d 8cee d6be a972 5d3e
00000270: ffda 9b3e 4653 913e a655 1fbf db1b 8a3e
00000280: a054 fa3e a9b2 583e 8ed4 1e3f e2ad 8c3c
00000290: c438 7f3e a81d 44be 36f8 b6be 6e02 2bbf
000002a0: d843 183f 37ad 9bbe a0d3 07be 8068 163f
000002b0: 15a5 eebe ff75 dc3e e40a 253f e2fe 2b3f
000002c0: 8d99 4e3e bc7e d83e 7a6e 5ebe 9bfe ca3e
000002d0: 1840 2b3e 272c 8f3e 3db0 f4be 5fd6 5d3e
000002e0: a66c 67be 21ee bfbe b16e 5bbe 5305 1bbe
000002f0: 8a3b 29be 65df 193f 935c 003f 2a19 4f3e
00000300: f4c1 743e 33ef 983e 4c1e 1f3f fa65 153f
00000310: d25b 92be 2954 5f3d 87bc f83e db3b 7c3e
00000320: 9d3d 39bf 6a74 acbe 5075 783e 2284 a73e
00000330: ef68 323e b643 4c3f 738e 013f ac29 fc3d
00000340: 61a4 85bd 3217 f43e 46b6 3ebc f880 ca3e
00000350: e8dd 4a3e c939 1c3f 7908 173f d8a1 16bc
00000360: dc52 ae3e fa82 063d 8e0a 5a3e 7ee3 233e
00000370: f1d8 88be ad4c f33e 639e 483e 7cd6 ea3e
00000380: 809c c23e f577 f83e 67c1 853f 1be5 c13e
00000390: 822c 623e c444 fa3d 6578 053f 9a19 3f3e
000003a0: 3a91 b9bd 987c 48be 3a08 b43e 9789 993e
000003b0: d7dc 2abe 8a24 333f 11fd f13e 637c 363f
000003c0: 95fd 51be ae28 873f 1e46 ec3e 6c5e b2be
000003d0: 558b 153f c0f2 a2bd 84b8 b1be a20a e7be
000003e0: 8d98 bd3e 0692 9dbe 0d8d 293f 85bc 493e
000003f0: a3a7 cdbd 1fa4 bbbe d992 2f3f 3ca1 be3e

l1.bias f4 [8]
0.8511624 0.5020277 0.7235342 0.9558988 0.8935777 0.321502 0.582639 0.9746195
00000000: c7e5 593f e384 003f 8a39 393f c9b5 743f
00000010: 82c1 643f e99b a43e d427 153f aa80 793f

l2.weight f4 [8, 8]
1.0947539 -0.2503963 -0.9357709 1.6708298 0.31334165 1.5253118 0.5446696 -0.771745
-0.38017347 -0.8626033 1.0923882 1.0429049 0.99512815 -1.2703437 -0.39372748 1.6765423
0.19229588 -0.16936159 0.19065711 -0.2182331 -0.08763382 -0.049661428 0.098166555 -0.12910216
0.5359754 0.6220875 1.141471 -1.0830387 0.68932855 -0.2921398 -0.5821698 1.0842829
-0.14914085 0.48763636 1.6252012 -0.7979438 0.6845073 0.704285 0.9759359 0.71472293
1.2583251 1.4937791 0.269907 0.55569965 -0.55329543 0.9436415 1.7784473 -0.24208288
1.5347646 -0.46916798 0.90333295 -0.06275846 1.6368934 0.334539 -1.3972845 -0.188367
-0.15645833 -0.012088597 0.23518041 -0.20583285 -0.28110072 -0.15592867 0.03277576 0.08893669
00000000: e520 8c3f f233 80be af8e 6fbf c0dd d53f
00000010: 516e a03e 6b3d c33f 786f 0b3f 1591 45bf
00000020: 19a6 c2be 92d3 5cbf 60d3 8b3f e87d 853f
00000030: b8c0 7e3f 9f9a a2bf a696 c9be f098 d63f
00000040: 36e9 443e 206d 2dbe 9e3b 433e 7f78 5fbe
00000050: 5c79 b3bd c869 4bbd 8c0b c93d 5b33 04be
00000060: af35 093f 2041 1f3f b91b 923f 03a1 8abf
00000070: d677 303f 5993 95be 1409 15bf c8c9 8a3f
00000080: 61b8 18be 79ab f93e 9806 d03f 0b46 4cbf
00000090: df3b 2f3f 064c 343f efd6 793f 15f8 363f
000000a0: cc10 a13f 2734 bf3f 4031 8a3e 5542 0e3f
000000b0: c5a4 0dbf 7d92 713f 29a4 e33f 93e4 77be
000000c0: 2b73 c43f c936 f0be d440 673f 8287 80bd
000000d0: b985 d13f b248 ab3e 38da b2bf 47e3 40be
000000e0: 9d36 20be 400f 46bc 22d3 703e d9c5 52be
000000f0: 6fec 8fbe c4ab 1fbe e03f 063d 7024 b63d

l2.bias f4 [8]
0.60629886 0.62424284 -0.27301708 0.41992757 -0.53831756 0.16068137 0.59291 -0.23129019
00000000: 6736 1b3f 61ce 1f3f e5c8 8bbe bf00 d73e
00000010: 2ecf 09bf a889 243e f3c8 173f 56d7 6cbe

l3.weight f4 [8, 8]
-0.123454034 -1.7124014 -0.31528834 0.0022591362 0.42434347 0.13772212 0.37774166 0.16658923
0.55183375 0.6698653 -0.34225327 -0.985489 -0.36093554 -0.08471642 -1.1201085 0.09472984
-1.3738941 0.84609205 -0.20361163 0.5686026 0.4185071 -1.6294624 0.25646275 -0.13405888
0.099388115 0.46499512 -0.057518393 -0.22916645 -1.3872299 -0.99237514 0.98578566 -0.12957264
0.040963154 -1.2195474 0.15494785 -0.72606397 1.013487 0.41852927 -1.2548654 0.031289518
-1.6677151 -0.3750131 0.24724653 0.6646572 0.4077306 0.79175276 -0.02162979 -0.044136524
0.63061184 -1.3476828 0.03470856 -0.9141042 -1.5176528 0.07615961 0.29994178 -0.28554317
0.7028586 -1.8076453 0.18934962 -0.7128797 -1.3054944 0.8286523 -1.6194583 -0.07969439
00000000: 78d5 fcbd f82f dbbf 796d a1be 040e 143b
00000010: 8c43 d93e 0707 0d3e 5b67 c13e 5e96 2a3e
00000020: fa44 0d3f 4b7c 2b3f d23b afbe 0249 7cbf
00000030: 8bcc b8be cd7f adbd b75f 8fbf b801 c23d
00000040: c3db afbf 7d99 583f 917f 50be f18f 113f
00000050: 9046 d63e 3992 d0bf 164f 833e bb46 09be
00000060: ff8b cb3d d713 ee3e 6898 6bbd 9caa 6abe
00000070: c090 b1bf 4c0c 7ebf 735c 7c3f b1ae 04be
00000080: fbc8 273d 211a 9cbf a6aa 1e3e 54df 39bf
00000090: f1b9 813f 7849 d63e 6e9f a0bf 7029 003d
000000a0: b077 d5bf b801 c0be 322e 7d3e f926 2a3f
000000b0: 11c2 d03e 4fb0 4a3f f530 b1bc 80c8 34bd
000000c0: c76f 213f df80 acbf 902a 0e3d bc02 6abf
000000d0: 7242 c2bf 92f9 9b3d f891 993e b732 92be
000000e0: 8bee 333f ec60 e7bf dee4 413e 497f 36bf
000000f0: 711a a7bf 8f22 543f 694a cfbf d036 a3bd

l3.bias f4 [8]
-0.45022488 0.38963124 0.19290423 -0.22587916 -0.255609 0.21647577 -0.39059496 0.091756426
00000000: e083 e6be bf7d c73e b088 453e de4c 67be
00000010: 2fdf 82be d3ab 5d3e 10fc c7be cbea bb3d
